…
        "type": "OSC_POSE",
        "uncouple_pos_ori": true
    },
    "has_offscreen_renderer": true,
    "has_renderer": false,
    "ignore_done": true,
    "render_gpu_device_id": 0,
    "reward_shaping": false,
    "robots": [
        "Panda"
    ],
    "use_camera_obs": false,
    "use_object_obs": true
}


============= Model Summary =============
BET (
  ModuleDict(
    (mlp): MLP(
        input_dim=7
        output_dim=7
        layer_dims=[512, 512]
        layer_func=Linear
        dropout=None
        act=Mish
        output_act=Tanh
    )
    (policy): MinGPT(
      (model): GPT(
        (tok_emb): Linear(in_features=26, out_features=120, bias=True)
        (drop): Dropout(p=0.1, inplace=False)
        (blocks): Sequential(
          (0): Block(
            (ln1): LayerNorm((120,), eps=1e-05, elementwise_affine=True)
            (ln2): LayerNorm((120,), eps=1e-05, elementwise_affine=True)
            (attn): CausalSelfAttention(
              (key): Linear(in_features=120, out_features=120, bias=True)
              (query): Linear(in_features=120, out_features=120, bias=True)
              (value): Linear(in_features=120, out_features=120, bias=True)
              (attn_drop): Dropout(p=0.1, inplace=False)
              (resid_drop): Dropout(p=0.1, inplace=False)
              (proj): Linear(in_features=120, out_features=120, bias=True)
            )
            (mlp): Sequential(
              (0): Linear(in_features=120, out_features=480, bias=True)
              (1): GELU()
              (2): Linear(in_features=480, out_features=120, bias=True)
              (3): Dropout(p=0.1, inplace=False)
            )
          )
          (1): Block(
            (ln1): LayerNorm((120,), eps=1e-05, elementwise_affine=True)
            (ln2): LayerNorm((120,), eps=1e-05, elementwise_affine=True)
            (attn): CausalSelfAttention(
              (key): Linear(in_features=120, out_features=120, bias=True)
              (query): Linear(in_features=120, out_features=120, bias=True)
              (value): Linear(in_features=120, out_features=120, bias=True)
              (attn_drop): Dropout(p=0.1, inplace=False)
              (resid_drop): Dropout(p=0.1, inplace=False)
              (proj): Linear(in_features=120, out_features=120, bias=True)
            )
            (mlp): Sequential(
              (0): Linear(in_features=120, out_features=480, bias=True)
              (1): GELU()
              (2): Linear(in_features=480, out_features=120, bias=True)
              (3): Dropout(p=0.1, inplace=False)
            )
          )
          (2): Block(
            (ln1): LayerNorm((120,), eps=1e-05, elementwise_affine=True)
            (ln2): LayerNorm((120,), eps=1e-05, elementwise_affine=True)
            (attn): CausalSelfAttention(
              (key): Linear(in_features=120, out_features=120, bias=True)
              (query): Linear(in_features=120, out_features=120, bias=True)
              (value): Linear(in_features=120, out_features=120, bias=True)
              (attn_drop): Dropout(p=0.1, inplace=False)
              (resid_drop): Dropout(p=0.1, inplace=False)
              (proj): Linear(in_features=120, out_features=120, bias=True)
            )
            (mlp): Sequential(
              (0): Linear(in_features=120, out_features=480, bias=True)
              (1): GELU()
              (2): Linear(in_features=480, out_features=120, bias=True)
              (3): Dropout(p=0.1, inplace=False)
            )
          )
          (3): Block(
            (ln1): LayerNorm((120,), eps=1e-05, elementwise_affine=True)
            (ln2): LayerNorm((120,), eps=1e-05, elementwise_affine=True)
            (attn): CausalSelfAttention(
              (key): Linear(in_features=120, out_features=120, bias=True)
              (query): Linear(in_features=120, out_features=120, bias=True)
              (value): Linear(in_features=120, out_features=120, bias=True)
              (attn_drop): Dropout(p=0.1, inplace=False)
              (resid_drop): Dropout(p=0.1, inplace=False)
              (proj): Linear(in_features=120, out_features=120, bias=True)
            )
            (mlp): Sequential(
              (0): Linear(in_features=120, out_features=480, bias=True)
              (1): GELU()
              (2): Linear(in_features=480, out_features=120, bias=True)
              (3): Dropout(p=0.1, inplace=False)
            )
          )
          (4): Block(
            (ln1): LayerNorm((120,), eps=1e-05, elementwise_affine=True)
            (ln2): LayerNorm((120,), eps=1e-05, elementwise_affine=True)
            (attn): CausalSelfAttention(
              (key): Linear(in_features=120, out_features=120, bias=True)
              (query): Linear(in_features=120, out_features=120, bias=True)
              (value): Linear(in_features=120, out_features=120, bias=True)
              (attn_drop): Dropout(p=0.1, inplace=False)
              (resid_drop): Dropout(p=0.1, inplace=False)
              (proj): Linear(in_features=120, out_features=120, bias=True)
            )
            (mlp): Sequential(
              (0): Linear(in_features=120, out_features=480, bias=True)
              (1): GELU()
              (2): Linear(in_features=480, out_features=120, bias=True)
              (3): Dropout(p=0.1, inplace=False)
            )
          )
          (5): Block(
            (ln1): LayerNorm((120,), eps=1e-05, elementwise_affine=True)
            (ln2): LayerNorm((120,), eps=1e-05, elementwise_affine=True)
            (attn): CausalSelfAttention(
              (key): Linear(in_features=120, out_features=120, bias=True)
              (query): Linear(in_features=120, out_features=120, bias=True)
              (value): Linear(in_features=120, out_features=120, bias=True)
              (attn_drop): Dropout(p=0.1, inplace=False)
              (resid_drop): Dropout(p=0.1, inplace=False)
              (proj): Linear(in_features=120, out_features=120, bias=True)
            )
            (mlp): Sequential(
              (0): Linear(in_features=120, out_features=480, bias=True)
              (1): GELU()
              (2): Linear(in_features=480, out_features=120, bias=True)
              (3): Dropout(p=0.1, inplace=False)
            )
          )
        )
        (ln_f): LayerNorm((120,), eps=1e-05, elementwise_affine=True)
        (head): Linear(in_features=120, out_features=512, bias=False)
      )
    )
  )
)

SequenceDataset: loading dataset into memory...
  0%|          | 0/180 [00:00<?, ?it/s] 47%|####6     | 84/180 [00:00<00:00, 830.52it/s] 93%|#########3| 168/180 [00:00<00:00, 830.11it/s]100%|##########| 180/180 [00:00<00:00, 829.63it/s]
SequenceDataset: loading dataset into memory...
  0%|          | 0/20 [00:00<?, ?it/s]100%|##########| 20/20 [00:00<00:00, 856.50it/s]
…
