…
                modality=low_dim
                randomizer=None
                net=None
                sharing_from=None
            )
            output_shape=[23]
        )
    )
    (mlp): MLP(
        input_dim=23
        output_dim=400
        layer_dims=(300,)
        layer_func=Linear
        dropout=None
        act=Mish
        output_act=Mish
    )
    (decoder): ObservationDecoder(
        Key(
            name=action
            shape=(7,)
            modality=low_dim
            net=(Linear(in_features=400, out_features=7, bias=True))
        )
    )
    (policy): MinGPT(
      (model): GPT(
        (tok_emb): Linear(in_features=23, out_features=120, bias=True)
        (drop): Dropout(p=0.1, inplace=False)
        (blocks): Sequential(
          (0): Block(
            (ln1): LayerNorm((120,), eps=1e-05, elementwise_affine=True)
            (ln2): LayerNorm((120,), eps=1e-05, elementwise_affine=True)
            (attn): CausalSelfAttention(
              (key): Linear(in_features=120, out_features=120, bias=True)
              (query): Linear(in_features=120, out_features=120, bias=True)
              (value): Linear(in_features=120, out_features=120, bias=True)
              (attn_drop): Dropout(p=0.1, inplace=False)
              (resid_drop): Dropout(p=0.1, inplace=False)
              (proj): Linear(in_features=120, out_features=120, bias=True)
            )
            (mlp): Sequential(
              (0): Linear(in_features=120, out_features=480, bias=True)
              (1): Mish()
              (2): Linear(in_features=480, out_features=120, bias=True)
              (3): Dropout(p=0.1, inplace=False)
            )
          )
          (1): Block(
            (ln1): LayerNorm((120,), eps=1e-05, elementwise_affine=True)
            (ln2): LayerNorm((120,), eps=1e-05, elementwise_affine=True)
            (attn): CausalSelfAttention(
              (key): Linear(in_features=120, out_features=120, bias=True)
              (query): Linear(in_features=120, out_features=120, bias=True)
              (value): Linear(in_features=120, out_features=120, bias=True)
              (attn_drop): Dropout(p=0.1, inplace=False)
              (resid_drop): Dropout(p=0.1, inplace=False)
              (proj): Linear(in_features=120, out_features=120, bias=True)
            )
            (mlp): Sequential(
              (0): Linear(in_features=120, out_features=480, bias=True)
              (1): Mish()
              (2): Linear(in_features=480, out_features=120, bias=True)
              (3): Dropout(p=0.1, inplace=False)
            )
          )
          (2): Block(
            (ln1): LayerNorm((120,), eps=1e-05, elementwise_affine=True)
            (ln2): LayerNorm((120,), eps=1e-05, elementwise_affine=True)
            (attn): CausalSelfAttention(
              (key): Linear(in_features=120, out_features=120, bias=True)
              (query): Linear(in_features=120, out_features=120, bias=True)
              (value): Linear(in_features=120, out_features=120, bias=True)
              (attn_drop): Dropout(p=0.1, inplace=False)
              (resid_drop): Dropout(p=0.1, inplace=False)
              (proj): Linear(in_features=120, out_features=120, bias=True)
            )
            (mlp): Sequential(
              (0): Linear(in_features=120, out_features=480, bias=True)
              (1): Mish()
              (2): Linear(in_features=480, out_features=120, bias=True)
              (3): Dropout(p=0.1, inplace=False)
            )
          )
          (3): Block(
            (ln1): LayerNorm((120,), eps=1e-05, elementwise_affine=True)
            (ln2): LayerNorm((120,), eps=1e-05, elementwise_affine=True)
            (attn): CausalSelfAttention(
              (key): Linear(in_features=120, out_features=120, bias=True)
              (query): Linear(in_features=120, out_features=120, bias=True)
              (value): Linear(in_features=120, out_features=120, bias=True)
              (attn_drop): Dropout(p=0.1, inplace=False)
              (resid_drop): Dropout(p=0.1, inplace=False)
              (proj): Linear(in_features=120, out_features=120, bias=True)
            )
            (mlp): Sequential(
              (0): Linear(in_features=120, out_features=480, bias=True)
              (1): Mish()
              (2): Linear(in_features=480, out_features=120, bias=True)
              (3): Dropout(p=0.1, inplace=False)
            )
          )
          (4): Block(
            (ln1): LayerNorm((120,), eps=1e-05, elementwise_affine=True)
            (ln2): LayerNorm((120,), eps=1e-05, elementwise_affine=True)
            (attn): CausalSelfAttention(
              (key): Linear(in_features=120, out_features=120, bias=True)
              (query): Linear(in_features=120, out_features=120, bias=True)
              (value): Linear(in_features=120, out_features=120, bias=True)
              (attn_drop): Dropout(p=0.1, inplace=False)
              (resid_drop): Dropout(p=0.1, inplace=False)
              (proj): Linear(in_features=120, out_features=120, bias=True)
            )
            (mlp): Sequential(
              (0): Linear(in_features=120, out_features=480, bias=True)
              (1): Mish()
              (2): Linear(in_features=480, out_features=120, bias=True)
              (3): Dropout(p=0.1, inplace=False)
            )
          )
          (5): Block(
            (ln1): LayerNorm((120,), eps=1e-05, elementwise_affine=True)
            (ln2): LayerNorm((120,), eps=1e-05, elementwise_affine=True)
            (attn): CausalSelfAttention(
              (key): Linear(in_features=120, out_features=120, bias=True)
              (query): Linear(in_features=120, out_features=120, bias=True)
              (value): Linear(in_features=120, out_features=120, bias=True)
              (attn_drop): Dropout(p=0.1, inplace=False)
              (resid_drop): Dropout(p=0.1, inplace=False)
              (proj): Linear(in_features=120, out_features=120, bias=True)
            )
            (mlp): Sequential(
              (0): Linear(in_features=120, out_features=480, bias=True)
              (1): Mish()
              (2): Linear(in_features=480, out_features=120, bias=True)
              (3): Dropout(p=0.1, inplace=False)
            )
          )
        )
        (ln_f): LayerNorm((120,), eps=1e-05, elementwise_affine=True)
        (head): Linear(in_features=120, out_features=512, bias=False)
      )
    )
  )
)

SequenceDataset: loading dataset into memory...
  0%|          | 0/180 [00:00<?, ?it/s] 44%|####4     | 80/180 [00:00<00:00, 789.24it/s] 88%|########8 | 159/180 [00:00<00:00, 757.50it/s]100%|##########| 180/180 [00:00<00:00, 763.98it/s]
SequenceDataset: caching get_item calls...
  0%|          | 0/20883 [00:00<?, ?it/s]  6%|
…
