…
                randomizer=None
                net=None
                sharing_from=None
            )
            Key(
                name=robot0_gripper_qpos
                shape=[2]
                modality=low_dim
                randomizer=None
                net=None
                sharing_from=None
            )
            output_shape=[19]
        )
    )
    (mlp): MLP(
        input_dim=7
        output_dim=7
        layer_dims=[1024, 1024]
        layer_func=Linear
        dropout=None
        act=Mish
        output_act=Tanh
    )
    (policy): MinGPT(
      (model): GPT(
        (tok_emb): Linear(in_features=19, out_features=120, bias=True)
        (drop): Dropout(p=0.1, inplace=False)
        (blocks): Sequential(
          (0): Block(
            (ln1): LayerNorm((120,), eps=1e-05, elementwise_affine=True)
            (ln2): LayerNorm((120,), eps=1e-05, elementwise_affine=True)
            (attn): CausalSelfAttention(
              (key): Linear(in_features=120, out_features=120, bias=True)
              (query): Linear(in_features=120, out_features=120, bias=True)
              (value): Linear(in_features=120, out_features=120, bias=True)
              (attn_drop): Dropout(p=0.1, inplace=False)
              (resid_drop): Dropout(p=0.1, inplace=False)
              (proj): Linear(in_features=120, out_features=120, bias=True)
            )
            (mlp): Sequential(
              (0): Linear(in_features=120, out_features=480, bias=True)
              (1): GELU()
              (2): Linear(in_features=480, out_features=120, bias=True)
              (3): Dropout(p=0.1, inplace=False)
            )
          )
          (1): Block(
            (ln1): LayerNorm((120,), eps=1e-05, elementwise_affine=True)
            (ln2): LayerNorm((120,), eps=1e-05, elementwise_affine=True)
            (attn): CausalSelfAttention(
              (key): Linear(in_features=120, out_features=120, bias=True)
              (query): Linear(in_features=120, out_features=120, bias=True)
              (value): Linear(in_features=120, out_features=120, bias=True)
              (attn_drop): Dropout(p=0.1, inplace=False)
              (resid_drop): Dropout(p=0.1, inplace=False)
              (proj): Linear(in_features=120, out_features=120, bias=True)
            )
            (mlp): Sequential(
              (0): Linear(in_features=120, out_features=480, bias=True)
              (1): GELU()
              (2): Linear(in_features=480, out_features=120, bias=True)
              (3): Dropout(p=0.1, inplace=False)
            )
          )
          (2): Block(
            (ln1): LayerNorm((120,), eps=1e-05, elementwise_affine=True)
            (ln2): LayerNorm((120,), eps=1e-05, elementwise_affine=True)
            (attn): CausalSelfAttention(
              (key): Linear(in_features=120, out_features=120, bias=True)
              (query): Linear(in_features=120, out_features=120, bias=True)
              (value): Linear(in_features=120, out_features=120, bias=True)
              (attn_drop): Dropout(p=0.1, inplace=False)
              (resid_drop): Dropout(p=0.1, inplace=False)
              (proj): Linear(in_features=120, out_features=120, bias=True)
            )
            (mlp): Sequential(
              (0): Linear(in_features=120, out_features=480, bias=True)
              (1): GELU()
              (2): Linear(in_features=480, out_features=120, bias=True)
              (3): Dropout(p=0.1, inplace=False)
            )
          )
          (3): Block(
            (ln1): LayerNorm((120,), eps=1e-05, elementwise_affine=True)
            (ln2): LayerNorm((120,), eps=1e-05, elementwise_affine=True)
            (attn): CausalSelfAttention(
              (key): Linear(in_features=120, out_features=120, bias=True)
              (query): Linear(in_features=120, out_features=120, bias=True)
              (value): Linear(in_features=120, out_features=120, bias=True)
              (attn_drop): Dropout(p=0.1, inplace=False)
              (resid_drop): Dropout(p=0.1, inplace=False)
              (proj): Linear(in_features=120, out_features=120, bias=True)
            )
            (mlp): Sequential(
              (0): Linear(in_features=120, out_features=480, bias=True)
              (1): GELU()
              (2): Linear(in_features=480, out_features=120, bias=True)
              (3): Dropout(p=0.1, inplace=False)
            )
          )
          (4): Block(
            (ln1): LayerNorm((120,), eps=1e-05, elementwise_affine=True)
            (ln2): LayerNorm((120,), eps=1e-05, elementwise_affine=True)
            (attn): CausalSelfAttention(
              (key): Linear(in_features=120, out_features=120, bias=True)
              (query): Linear(in_features=120, out_features=120, bias=True)
              (value): Linear(in_features=120, out_features=120, bias=True)
              (attn_drop): Dropout(p=0.1, inplace=False)
              (resid_drop): Dropout(p=0.1, inplace=False)
              (proj): Linear(in_features=120, out_features=120, bias=True)
            )
            (mlp): Sequential(
              (0): Linear(in_features=120, out_features=480, bias=True)
              (1): GELU()
              (2): Linear(in_features=480, out_features=120, bias=True)
              (3): Dropout(p=0.1, inplace=False)
            )
          )
          (5): Block(
            (ln1): LayerNorm((120,), eps=1e-05, elementwise_affine=True)
            (ln2): LayerNorm((120,), eps=1e-05, elementwise_affine=True)
            (attn): CausalSelfAttention(
              (key): Linear(in_features=120, out_features=120, bias=True)
              (query): Linear(in_features=120, out_features=120, bias=True)
              (value): Linear(in_features=120, out_features=120, bias=True)
              (attn_drop): Dropout(p=0.1, inplace=False)
              (resid_drop): Dropout(p=0.1, inplace=False)
              (proj): Linear(in_features=120, out_features=120, bias=True)
            )
            (mlp): Sequential(
              (0): Linear(in_features=120, out_features=480, bias=True)
              (1): GELU()
              (2): Linear(in_features=480, out_features=120, bias=True)
              (3): Dropout(p=0.1, inplace=False)
            )
          )
        )
        (ln_f): LayerNorm((120,), eps=1e-05, elementwise_affine=True)
        (head): Linear(in_features=120, out_features=256, bias=False)
      )
    )
  )
)


============= Training Dataset =============
SequenceDataset (
	path=datasets/lift/ph/low_dim.hdf5
	obs_keys=('object', 'robot0_eef_pos', 'robot0_eef_quat', 'robot0_gripper_qpos')
	seq_length=5
	filter_key=train
	frame_stack=1
	pad_seq_length=True
	pad_frame_stack=True
	goal_mode=none
	cache_mode=none
	num_demos=180
	num_sequences=8640
…
