…
        "type": "OSC_POSE",
        "uncouple_pos_ori": true
    },
    "has_offscreen_renderer": true,
    "has_renderer": false,
    "ignore_done": true,
    "render_gpu_device_id": 0,
    "reward_shaping": false,
    "robots": [
        "Panda"
    ],
    "use_camera_obs": false,
    "use_object_obs": true
}


============= Model Summary =============
BET (
  ModuleDict(
    (mlp): MLP(
        input_dim=7
        output_dim=7
        layer_dims=[512, 512]
        layer_func=Linear
        dropout=None
        act=Mish
        output_act=Tanh
    )
    (policy): MinGPT(
      (model): GPT(
        (tok_emb): Linear(in_features=23, out_features=240, bias=True)
        (drop): Dropout(p=0.1, inplace=False)
        (blocks): Sequential(
          (0): Block(
            (ln1): LayerNorm((240,), eps=1e-05, elementwise_affine=True)
            (ln2): LayerNorm((240,), eps=1e-05, elementwise_affine=True)
            (attn): CausalSelfAttention(
              (key): Linear(in_features=240, out_features=240, bias=True)
              (query): Linear(in_features=240, out_features=240, bias=True)
              (value): Linear(in_features=240, out_features=240, bias=True)
              (attn_drop): Dropout(p=0.1, inplace=False)
              (resid_drop): Dropout(p=0.1, inplace=False)
              (proj): Linear(in_features=240, out_features=240, bias=True)
            )
            (mlp): Sequential(
              (0): Linear(in_features=240, out_features=960, bias=True)
              (1): GELU()
              (2): Linear(in_features=960, out_features=240, bias=True)
              (3): Dropout(p=0.1, inplace=False)
            )
          )
          (1): Block(
            (ln1): LayerNorm((240,), eps=1e-05, elementwise_affine=True)
            (ln2): LayerNorm((240,), eps=1e-05, elementwise_affine=True)
            (attn): CausalSelfAttention(
              (key): Linear(in_features=240, out_features=240, bias=True)
              (query): Linear(in_features=240, out_features=240, bias=True)
              (value): Linear(in_features=240, out_features=240, bias=True)
              (attn_drop): Dropout(p=0.1, inplace=False)
              (resid_drop): Dropout(p=0.1, inplace=False)
              (proj): Linear(in_features=240, out_features=240, bias=True)
            )
            (mlp): Sequential(
              (0): Linear(in_features=240, out_features=960, bias=True)
              (1): GELU()
              (2): Linear(in_features=960, out_features=240, bias=True)
              (3): Dropout(p=0.1, inplace=False)
            )
          )
          (2): Block(
            (ln1): LayerNorm((240,), eps=1e-05, elementwise_affine=True)
            (ln2): LayerNorm((240,), eps=1e-05, elementwise_affine=True)
            (attn): CausalSelfAttention(
              (key): Linear(in_features=240, out_features=240, bias=True)
              (query): Linear(in_features=240, out_features=240, bias=True)
              (value): Linear(in_features=240, out_features=240, bias=True)
              (attn_drop): Dropout(p=0.1, inplace=False)
              (resid_drop): Dropout(p=0.1, inplace=False)
              (proj): Linear(in_features=240, out_features=240, bias=True)
            )
            (mlp): Sequential(
              (0): Linear(in_features=240, out_features=960, bias=True)
              (1): GELU()
              (2): Linear(in_features=960, out_features=240, bias=True)
              (3): Dropout(p=0.1, inplace=False)
            )
          )
          (3): Block(
            (ln1): LayerNorm((240,), eps=1e-05, elementwise_affine=True)
            (ln2): LayerNorm((240,), eps=1e-05, elementwise_affine=True)
            (attn): CausalSelfAttention(
              (key): Linear(in_features=240, out_features=240, bias=True)
              (query): Linear(in_features=240, out_features=240, bias=True)
              (value): Linear(in_features=240, out_features=240, bias=True)
              (attn_drop): Dropout(p=0.1, inplace=False)
              (resid_drop): Dropout(p=0.1, inplace=False)
              (proj): Linear(in_features=240, out_features=240, bias=True)
            )
            (mlp): Sequential(
              (0): Linear(in_features=240, out_features=960, bias=True)
              (1): GELU()
              (2): Linear(in_features=960, out_features=240, bias=True)
              (3): Dropout(p=0.1, inplace=False)
            )
          )
          (4): Block(
            (ln1): LayerNorm((240,), eps=1e-05, elementwise_affine=True)
            (ln2): LayerNorm((240,), eps=1e-05, elementwise_affine=True)
            (attn): CausalSelfAttention(
              (key): Linear(in_features=240, out_features=240, bias=True)
              (query): Linear(in_features=240, out_features=240, bias=True)
              (value): Linear(in_features=240, out_features=240, bias=True)
              (attn_drop): Dropout(p=0.1, inplace=False)
              (resid_drop): Dropout(p=0.1, inplace=False)
              (proj): Linear(in_features=240, out_features=240, bias=True)
            )
            (mlp): Sequential(
              (0): Linear(in_features=240, out_features=960, bias=True)
              (1): GELU()
              (2): Linear(in_features=960, out_features=240, bias=True)
              (3): Dropout(p=0.1, inplace=False)
            )
          )
          (5): Block(
            (ln1): LayerNorm((240,), eps=1e-05, elementwise_affine=True)
            (ln2): LayerNorm((240,), eps=1e-05, elementwise_affine=True)
            (attn): CausalSelfAttention(
              (key): Linear(in_features=240, out_features=240, bias=True)
              (query): Linear(in_features=240, out_features=240, bias=True)
              (value): Linear(in_features=240, out_features=240, bias=True)
              (attn_drop): Dropout(p=0.1, inplace=False)
              (resid_drop): Dropout(p=0.1, inplace=False)
              (proj): Linear(in_features=240, out_features=240, bias=True)
            )
            (mlp): Sequential(
              (0): Linear(in_features=240, out_features=960, bias=True)
              (1): GELU()
              (2): Linear(in_features=960, out_features=240, bias=True)
              (3): Dropout(p=0.1, inplace=False)
            )
          )
          (6): Block(
            (ln1): LayerNorm((240,), eps=1e-05, elementwise_affine=True)
            (ln2): LayerNorm((240,), eps=1e-05, elementwise_affine=True)
            (attn): CausalSelfAttention(
              (key): Linear(in_features=240, out_features=240, bias=True)
              (query): Linear(in_features=240, out_features=240, bias=True)
              (value): Linear(in_features=240, out_features=240, bias=True)
              (attn_drop): Dropout(p=0.1, inplace=False)
              (resid_drop): Dropout(p=0.1, inplace=False)
              (proj): Linear(in_features=240, out_features=240, bias=True)
            )
            (mlp): Sequential(
              (0): Linear(in_features=240, out_features=960, bias=True)
              (1): GELU()
              (2): Linear(in_features=960, out_features=240, bias=True)
              (3): Dropout(p=0.1, inplace=False)
            )
          )
          (7): Block(
            (ln1): LayerNorm((240,), eps=1e-05, elementwise_affine=True)
            (ln2): LayerNorm((240,), eps=1e-05, elementwise_affine=True)
            (attn): CausalSelfAttention(
              (key): Linear(in_features=240, out_features=240, bias=True)
              (query): Linear(in_features=240, out_features=240, bias=True)
              (value): Linear(in_features=240, out_features=240, bias=True)
              (attn_drop): Dropout(p=0.1, inplace=False)
              (resid_drop): Dropout(p=0.1, inplace=False)
              (proj): Linear(in_features=240, out_features=240, bias=True)
            )
            (mlp): Sequential(
              (0): Linear(in_features=240, out_features=960, bias=True)
              (1): GELU()
              (2): Linear(in_features=960, out_features=240, bias=True)
              (3): Dropout(p=0.1, inplace=False)
            )
          )
          (8): Block(
            (ln1): LayerNorm((240,), eps=1e-05, elementwise_affine=True)
            (ln2): LayerNorm((240,), eps=1e-05, elementwise_affine=True)
            (attn): CausalSelfAttention(
              (key): Linear(in_features=240, out_features=240, bias=True)
              (query): Linear(in_features=240, out_features=240, bias=True)
              (value): Linear(in_features=240, out_features=240, bias=True)
              (attn_drop): Dropout(p=0.1, inplace=False)
              (resid_drop): Dropout(p=0.1, inplace=False)
              (proj): Linear(in_features=240, out_features=240, bias=True)
            )
            (mlp): Sequential(
              (0): Linear(in_features=240, out_features=960, bias=True)
              (1): GELU()
              (2): Linear(in_features=960, out_features=240, bias=True)
              (3): Dropout(p=0.1, inplace=False)
            )
          )
          (9): Block(
            (ln1): LayerNorm((240,), eps=1e-05, elementwise_affine=True)
            (ln2): LayerNorm((240,), eps=1e-05, elementwise_affine=True)
            (attn): CausalSelfAttention(
              (key): Linear(in_features=240, out_features=240, bias=True)
              (query): Linear(in_features=240, out_features=240, bias=True)
              (value): Linear(in_features=240, out_features=240, bias=True)
              (attn_drop): Dropout(p=0.1, inplace=False)
              (resid_drop): Dropout(p=0.1, inplace=False)
              (proj): Linear(in_features=240, out_features=240, bias=True)
            )
            (mlp): Sequential(
              (0): Linear(in_features=240, out_features=960, bias=True)
              (1): GELU()
              (2): Linear(in_features=960, out_features=240, bias=True)
              (3): Dropout(p=0.1, inplace=False)
            )
          )
          (10): Block(
            (ln1): LayerNorm((240,), eps=1e-05, elementwise_affine=True)
            (ln2): LayerNorm((240,), eps=1e-05, elementwise_affine=True)
            (attn): CausalSelfAttention(
              (key): Linear(in_features=240, out_features=240, bias=True)
              (query): Linear(in_features=240, out_features=240, bias=True)
              (value): Linear(in_features=240, out_features=240, bias=True)
              (attn_drop): Dropout(p=0.1, inplace=False)
              (resid_drop): Dropout(p=0.1, inplace=False)
              (proj): Linear(in_features=240, out_features=240, bias=True)
            )
            (mlp): Sequential(
              (0): Linear(in_features=240, out_features=960, bias=True)
              (1): GELU()
              (2): Linear(in_features=960, out_features=240, bias=True)
              (3): Dropout(p=0.1, inplace=False)
            )
          )
          (11): Block(
            (ln1): LayerNorm((240,), eps=1e-05, elementwise_affine=True)
            (ln2): LayerNorm((240,), eps=1e-05, elementwise_affine=True)
            (attn): CausalSelfAttention(
              (key): Linear(in_features=240, out_features=240, bias=True)
              (query): Linear(in_features=240, out_features=240, bias=True)
              (value): Linear(in_features=240, out_features=240, bias=True)
              (attn_drop): Dropout(p=0.1, inplace=False)
              (resid_drop): Dropout(p=0.1, inplace=False)
              (proj): Linear(in_features=240, out_features=240, bias=True)
            )
            (mlp): Sequential(
              (0): Linear(in_features=240, out_features=960, bias=True)
              (1): GELU()
              (2): Linear(in_features=960, out_features=240, bias=True)
              (3): Dropout(p=0.1, inplace=False)
            )
          )
        )
        (ln_f): LayerNorm((240,), eps=1e-05, elementwise_affine=True)
        (head): Linear(in_features=240, out_features=768, bias=False)
      )
    )
  )
)

SequenceDataset: loading dataset into memory...
  0%|          | 0/180 [00:00<?, ?it/s] 45%|####5     | 81/180 [00:00<00:00, 801.43it/s] 91%|#########1| 164/180 [00:00<00:00, 817.65it/s]100%|##########| 180/180 [00:00<00:00, 817.48it/s]
SequenceDataset: loading dataset into memory...
  0%|          | 0/20 [00:00<?, ?it/s]100%|##########| 20/20 [00:00<00:00, 860.46it/s]
…
