…
        "type": "OSC_POSE",
        "uncouple_pos_ori": true
    },
    "has_offscreen_renderer": true,
    "has_renderer": false,
    "ignore_done": true,
    "render_gpu_device_id": 0,
    "reward_shaping": false,
    "robots": [
        "Panda"
    ],
    "use_camera_obs": false,
    "use_object_obs": true
}


============= Model Summary =============
BET (
  ModuleDict(
    (mlp): MLP(
        input_dim=7
        output_dim=7
        layer_dims=[512, 512]
        layer_func=Linear
        dropout=None
        act=Mish
        output_act=Tanh
    )
    (policy): MinGPT(
      (model): GPT(
        (tok_emb): Linear(in_features=26, out_features=72, bias=True)
        (drop): Dropout(p=0.1, inplace=False)
        (blocks): Sequential(
          (0): Block(
            (ln1): LayerNorm((72,), eps=1e-05, elementwise_affine=True)
            (ln2): LayerNorm((72,), eps=1e-05, elementwise_affine=True)
            (attn): CausalSelfAttention(
              (key): Linear(in_features=72, out_features=72, bias=True)
              (query): Linear(in_features=72, out_features=72, bias=True)
              (value): Linear(in_features=72, out_features=72, bias=True)
              (attn_drop): Dropout(p=0.1, inplace=False)
              (resid_drop): Dropout(p=0.1, inplace=False)
              (proj): Linear(in_features=72, out_features=72, bias=True)
            )
            (mlp): Sequential(
              (0): Linear(in_features=72, out_features=288, bias=True)
              (1): GELU()
              (2): Linear(in_features=288, out_features=72, bias=True)
              (3): Dropout(p=0.1, inplace=False)
            )
          )
          (1): Block(
            (ln1): LayerNorm((72,), eps=1e-05, elementwise_affine=True)
            (ln2): LayerNorm((72,), eps=1e-05, elementwise_affine=True)
            (attn): CausalSelfAttention(
              (key): Linear(in_features=72, out_features=72, bias=True)
              (query): Linear(in_features=72, out_features=72, bias=True)
              (value): Linear(in_features=72, out_features=72, bias=True)
              (attn_drop): Dropout(p=0.1, inplace=False)
              (resid_drop): Dropout(p=0.1, inplace=False)
              (proj): Linear(in_features=72, out_features=72, bias=True)
            )
            (mlp): Sequential(
              (0): Linear(in_features=72, out_features=288, bias=True)
              (1): GELU()
              (2): Linear(in_features=288, out_features=72, bias=True)
              (3): Dropout(p=0.1, inplace=False)
            )
          )
          (2): Block(
            (ln1): LayerNorm((72,), eps=1e-05, elementwise_affine=True)
            (ln2): LayerNorm((72,), eps=1e-05, elementwise_affine=True)
            (attn): CausalSelfAttention(
              (key): Linear(in_features=72, out_features=72, bias=True)
              (query): Linear(in_features=72, out_features=72, bias=True)
              (value): Linear(in_features=72, out_features=72, bias=True)
              (attn_drop): Dropout(p=0.1, inplace=False)
              (resid_drop): Dropout(p=0.1, inplace=False)
              (proj): Linear(in_features=72, out_features=72, bias=True)
            )
            (mlp): Sequential(
              (0): Linear(in_features=72, out_features=288, bias=True)
              (1): GELU()
              (2): Linear(in_features=288, out_features=72, bias=True)
              (3): Dropout(p=0.1, inplace=False)
            )
          )
          (3): Block(
            (ln1): LayerNorm((72,), eps=1e-05, elementwise_affine=True)
            (ln2): LayerNorm((72,), eps=1e-05, elementwise_affine=True)
            (attn): CausalSelfAttention(
              (key): Linear(in_features=72, out_features=72, bias=True)
              (query): Linear(in_features=72, out_features=72, bias=True)
              (value): Linear(in_features=72, out_features=72, bias=True)
              (attn_drop): Dropout(p=0.1, inplace=False)
              (resid_drop): Dropout(p=0.1, inplace=False)
              (proj): Linear(in_features=72, out_features=72, bias=True)
            )
            (mlp): Sequential(
              (0): Linear(in_features=72, out_features=288, bias=True)
              (1): GELU()
              (2): Linear(in_features=288, out_features=72, bias=True)
              (3): Dropout(p=0.1, inplace=False)
            )
          )
        )
        (ln_f): LayerNorm((72,), eps=1e-05, elementwise_affine=True)
        (head): Linear(in_features=72, out_features=512, bias=False)
      )
    )
  )
)

SequenceDataset: loading dataset into memory...
  0%|          | 0/180 [00:00<?, ?it/s] 48%|####7     | 86/180 [00:00<00:00, 854.39it/s] 96%|#########5| 172/180 [00:00<00:00, 844.46it/s]100%|##########| 180/180 [00:00<00:00, 844.55it/s]
SequenceDataset: caching get_item calls...
  0%|          | 0/20883 [00:00<?, ?it/s]  6%|6
…
